RecsysFiles/debug_cf.pth (torch, 265304 bytes, 3 tensors)

mlp.0.weight f4 [128, 512]
0	0xbadd840e	-0.0016900317
1	0xbce4ba50	-0.027920872
2	0x3d252449	0.040317807
3	0x3cac6d17	0.021048112
4	0x3d165fa8	0.03671232
5	0x3cef6891	0.029224666
6	0xbcffb126	-0.0312124
7	0x3cba3edc	0.022735052
8	0x3c56173f	0.013067066
9	0xbcfcd2d8	-0.030862257
10	0x3c9a3a21	0.018826546
11	0xbd012390	-0.031528056
12	0x3ce21df7	0.027602179
13	0x3d37267e	0.044714443
14	0xbb9ac3ff	-0.0047230716
15	0x3c5ec7d8	0.013597451
16	0x3bb6f2d0	0.0055831447
17	0x3c9f9def	0.019484488
18	0xbc9714d5	-0.01844255
19	0xbc955649	-0.01822962
20	0x3cbb5af2	0.022870515
21	0x3cdf4e20	0.027258933
22	0x3cdb569a	0.026774693
23	0x3ca478b7	0.020077093
24	0x399bd30c	0.00029721146
25	0x3c2e9195	0.010654827
26	0x3d1e5ec6	0.0386646
27	0x3ce25b7f	0.02763152
28	0x3cb07c10	0.021543533
29	0x3d1671fb	0.036729794
30	0xbcec42ea	-0.0288405
31	0x3cf3fbec	0.029783212
32	0x3ba3d726	0.005000013
33	0x3d1173e1	0.0355109
34	0xbd195143	-0.037431013
35	0xbcea2d1a	-0.02858596
36	0x3bc7fe49	0.006103311
37	0x3c7f3139	0.0155757
38	0x3ce87360	0.028375328
39	0xbd2ca9e9	-0.042154226
40	0xbbe1c538	-0.0068899654
41	0xbb75db5a	-0.0037514777
42	0xbd12da33	-0.035852622
43	0x3cc13160	0.023583114
44	0xbcf9f741	-0.030513408
45	0xbce51481	-0.027963879
46	0xbd365bd2	-0.04452116
47	0xbd363e85	-0.044493217
48	0x3be47482	0.0069718966
49	0x3d2c4ea3	0.04206718
50	0xbd29cf22	-0.041457303
51	0xbd23572e	-0.039878063
52	0x3c51853f	0.012788116
53	0x3cb8938c	0.022531293
54	0xbd008b58	-0.03138289
55	0xbcfe0e50	-0.031012684
56	0xbc823096	-0.015892308
57	0xbc18f76e	-0.009336336
58	0x3d249a2d	0.040186096
59	0xbd2918a0	-0.04128325
60	0xbb203629	-0.0024446344
61	0xbd2f3de2	-0.042783625
62	0x3c745bd4	0.014914472
63	0xbc65f366	-0.0140350815
64	0x3c8b003d	0.016967887
65	0x3ccaae15	0.024741212
66	0xbd2f96e9	-0.04286853
67	0x3ce5ca57	0.028050585
68	0xbd22a6d3	-0.039709877
69	0xbc7471e0	-0.014919728
70	0xbc719941	-0.014746011
71	0x3ce01603	0.027354246
72	0x3d24d821	0.04024518
73	0x3d1a44d8	0.03766331
74	0x3d2b6883	0.041847717
75	0x3c9f6d24	0.019461222
76	0x3ca950eb	0.020668468
77	0x3c583988	0.01319731
78	0x3d16cda6	0.036817215
79	0xbca18d72	-0.019720767
80	0xbcee1535	-0.029062847
81	0x3c4525a3	0.012032899
82	0x3d2c7801	0.042106632
83	0xbd06fb62	-0.03295458
84	0xbbaf5bcc	-0.005351519
85	0xbc1d71bf	-0.009609639
86	0x3c1c7d44	0.00955135
87	0xbcfaa188	-0.030594602
88	0xbb8484b1	-0.0040441384
89	0x3b738f00	0.0037164092
90	0x3c5a5063	0.01332483
91	0xbc9c9f1b	-0.019118836
92	0xbd07c693	-0.03314836
93	0x3ce53f5b	0.027984312
94	0x3cc75666	0.02433319
95	0xbc7a305e	-0.015270321
96	0xbabac8e0	-0.0014250539
97	0xbd005f20	-0.03134072
98	0x3d0c3c24	0.034237042
99	0xbd16ba16	-0.03679856
100	0x3d349f13	0.044097017
101	0xbd1f562b	-0.038900536
102	0xbc23b7f7	-0.009992591
103	0x3cb04a75	0.021519879
104	0xbd0281ff	-0.031862255
105	0x3ca12e24	0.019675322
106	0x3b4da7ea	0.0031380602
107	0x3d2d89e0	0.042367816
108	0xbc71c096	-0.014755389
109	0xbc94e7b5	-0.018176893
110	0x3d08540a	0.03328327
111	0xbd083398	-0.03325233
112	0xbcaa1abf	-0.020764707
113	0xbc8655bd	-0.016398305
114	0x3c813609	0.015772836
115	0xbd30d534	-0.043172076
116	0x3cb8e05c	0.02256792
117	0x3c8e613c	0.01738035
118	0x3c330137	0.010925583
119	0x3b6e9604	0.0036405334
120	0xbc5d7bc0	-0.013518274
121	0xbce254f8	-0.027628407
122	0x3d12c9b1	0.03583688
123	0x3bccc751	0.0062493463
124	0x3ae6b1bb	0.0017600575
125	0x3c901a8c	0.017590784
126	0xbce030ea	-0.027367074
127	0xbcda35e7	-0.02663703
128	0x3d22701d	0.0396577
129	0xbc963e18	-0.018340155
130	0xbc3d3dd8	-0.011550389
131	0x3d2bf3bd	0.041980494
132	0xbd172163	-0.036897074
133	0xbd244bf5	-0.0401115
134	0x3d342d38	0.043988436
135	0x3c225616	0.00990822
136	0x3d214e94	0.03938158
137	0xbd13c2dd	-0.036074508
138	0x3c09f02c	0.008419078
139	0xbcf41e7d	-0.029799694
140	0xbbc69d3e	-0.006061225
141	0x3d2ad8a7	0.041710522
142	0xbd2a07e0	-0.041511416
143	0xbd1c360a	-0.038137473
144	0xbc62a726	-0.013833797
145	0x3c2978ae	0.010343714
146	0xbd20c965	-0.039254565
147	0xbabf5252	-0.0014596677
148	0x3c9daa8e	0.019246366
149	0x3d2cd74e	0.042197518
150	0xbcd95a6c	-0.026532374
151	0x3c728058	0.014801107
152	0xbcdafbf2	-0.026731465
153	0xbd11718f	-0.03550869
154	0x3ca89c9b	0.020582488
155	0xbd019f86	-0.031646274
156	0xbcc4d393	-0.024026668
157	0x3b370056	0.0027923784
158	0x3cae9d79	0.021315323
159	0x3cb8e11d	0.02256828
160	0x3d024d53	0.031812023
161	0xbb88082f	-0.004151366
162	0x3cacc26a	0.021088798
163	0xbcd8c7ce	-0.026462462
164	0xbd118739	-0.03552935
165	0xbcf74f5f	-0.030189214
166	0xbd2c8f63	-0.04212893
167	0xbc477998	-0.012174986
168	0x3cee2a60	0.02907294
169	0x3c981f0f	0.018569497
170	0xbc29a24a	-0.010353634
171	0x3c8959f8	0.016766533
172	0xbc9737dc	-0.018459253
173	0x3ad28052	0.0016059971
174	0x3ca4b2ee	0.020104852
175	0x3ba219f4	0.0049469415
176	0x3c18c388	0.009323962
177	0x3cc5928c	0.02411773
178	0xbce82c07	-0.028341306
179	0x3c8a9015	0.016914407
180	0x3cb81dde	0.02247518
181	0xbd11de99	-0.035612676
182	0x3bd787d6	0.006577472
183	0x3d189f4e	0.0372613
184	0x3d1ceb67	0.038310435
185	0xbd33c83f	-0.04389214
186	0x3d25a0cf	0.040436562
187	0x3c160fa5	0.009159003
188	0x3c2ee773	0.010675299
189	0xbcc4ebf6	-0.024038296
190	0x3cf6776e	0.030086245
191	0x3cd4f7d0	0.025997072
192	0xbc26c121	-0.010177881
193	0xbcf21dfb	-0.029555311
194	0xba37d339	-0.00070123706
195	0xbcfd19f3	-0.030896163
196	0xbc8fb4d8	-0.017542288
197	0xbd23c1d6	-0.03997978
198	0x3bf9b8e1	0.0076209162
199	0xbb318a00	-0.002709031
200	0xbcd0ea15	-0.025502244
201	0x3cf04348	0.029328957
202	0x3d2cde84	0.042204395
203	0xbc42d4b7	-0.0118915355
204	0x3d190492	0.037357874
205	0xbc5198c3	-0.012792769
206	0x3c523e90	0.012832299
207	0x3d08110a	0.033219375
208	0x3d193cfb	0.03741167
209	0x3c8e8132	0.01739559
210	0x3bf2ef1b	0.0074137575
211	0x3c1f3014	0.009716053
212	0xbc088920	-0.008333474
213	0xbd0e4362	-0.03473223
214	0xbd1a4953	-0.037667584
215	0xbc6ec81e	-0.014574079
216	0xbc8fd1be	-0.017556068
217	0xbcce01c2	-0.025147323
218	0xbb1ba099	-0.0023746847
219	0xbd253bde	-0.040340297
220	0x3acb1cb2	0.0015496223
221	0x3d159d73	0.03652711
222	0xbca1ac3a	-0.019735444
223	0x3ca71379	0.020395027
224	0xbc960c60	-0.018316448
225	0x3bfd0bb1	0.007722341
226	0x3cb7a50b	0.022417566
227	0x3c976ac8	0.018483534
228	0x3c8c2829	0.017108994
229	0x3cb4edf2	0.022086117
230	0x3bb72994	0.0055896733
231	0x3ccb3727	0.024806572
232	0x3d21f90b	0.039544147
233	0xbcb710df	-0.022346912
234	0x3ce31a70	0.027722567
235	0xbb1de46c	-0.002409245
236	0x3d219c31	0.039455596
237	0xbd07298c	-0.032998607
238	0xbc35a272	-0.011086093
239	0xbc9fac98	-0.019491479
240	0x3d33f014	0.04393013
241	0xbcbc8477	-0.023012383
242	0x3cb05fd9	0.021530079
243	0xbb1bb000	-0.0023756027
244	0x3d2e68aa	0.042580284
245	0xbd014f70	-0.031569898
246	0xbcaa8f76	-0.02082036
247	0xbcc09cc5	-0.023512254
248	0x3ca070af	0.019584982
249	0x3b692706	0.0035576238
250	0x3c29665a	0.010339344
251	0x3b9cb198	0.004781913
252	0x3ccd182f	0.025035946
253	0x3cb2671a	0.021777678
254	0xbd0d9153	-0.03456242
255	0x3c6ec229	0.014572659

mlp.0.bias f4 [128]
0	0xbcb93752	-0.022609387
1	0xbc75bb38	-0.01499825
2	0x3d1184fa	0.035527207
3	0x3d32e0d8	0.04367146
4	0x3aedd842	0.0018146115
5	0xbc785b7c	-0.01515853
6	0x3c35e69a	0.011102343
7	0x3cd39cae	0.025831547
8	0xbb49a97a	-0.0030771182
9	0xbc0800a9	-0.008300939
10	0x3c860bda	0.016363073
11	0xbd08b720	-0.033377767
12	0x3d1a8257	0.037721958
13	0xbcaadd02	-0.020857338
14	0xbce6665c	-0.02812498
15	0x3cb9aa9b	0.022664359
16	0x3d188c12	0.037242956
17	0x3c0231e0	0.007946461
18	0xbb4df6a7	-0.0031427534
19	0x3d2be15a	0.04196296
20	0x3c779647	0.0151115125
21	0xbc0adbd4	-0.008475263
22	0x3d08f564	0.033437148
23	0xbd26d827	-0.040733483
24	0xbcef0c5e	-0.029180702
25	0x3b1ea62e	0.0024207938
26	0xb9d1f8d8	-0.0004004899
27	0xbcee21af	-0.029068796
28	0xbc55cb47	-0.013048953
29	0xbbdc189c	-0.006716801
30	0xbac4a3fe	-0.0015002487
31	0x3d239ad1	0.039942566
32	0xbc8a3c82	-0.016874555
33	0xbd2e0bcc	-0.04249172
34	0xbc95b3ed	-0.018274272
35	0x3cceeb35	0.02525864
36	0xbbeefda4	-0.00729342
37	0x3cd44a5f	0.02591437
38	0xba2e8630	-0.0006657569
39	0x3d0bc825	0.03412642
40	0xbccd0993	-0.02502898
41	0x3d0c3b37	0.03423616
42	0xbce8aa7b	-0.028401604
43	0x3d05609d	0.03256284
44	0x3d047198	0.032334894
45	0xbbd7405a	-0.0065689506
46	0xbd12fbf1	-0.0358848
47	0xbd30a63d	-0.043127287
48	0x3bca2f99	0.006170225
49	0xbcb63413	-0.022241628
50	0x3bba9b1e	0.005694761
51	0xbce71469	-0.028207975
52	0x3d2418a8	0.040062577
53	0x3d0df3ca	0.034656323
54	0xbd0edbd1	-0.034877602
55	0xbcf81827	-0.030284954
56	0xbcd0ee58	-0.025504276
57	0x3cf1649b	0.029466918
58	0xbcecad43	-0.028891211
59	0x3b89bb7e	0.004203259
60	0x3b64c6b2	0.003490847
61	0xbd20d1e8	-0.039262682
62	0x3ba3ef68	0.0050029047
63	0xbb22e0d9	-0.0024853258
64	0x3d1de574	0.0385489
65	0xbd040a52	-0.032236405
66	0x3c565a11	0.013082997
67	0xbcfc01ea	-0.030762631
68	0x3c71e6cc	0.014764499
69	0x3d0313f1	0.03200144
70	0x3cc5547b	0.024088135
71	0x3bbec98a	0.005822365
72	0xbc9a9061	-0.018867673
73	0xbc351b22	-0.011053832
74	0x3d07c05a	0.033142425
75	0xbd29ea30	-0.041483104
76	0xbc26c116	-0.010177871
77	0x3d363d0c	0.044491813
78	0xbcd2bc4b	-0.02572455
79	0xbcca86d9	-0.024722503
80	0xbbfaeffd	-0.0076580034
81	0xbc1e461f	-0.009660273
82	0x3d1b7bfb	0.037960034
83	0x3cd374d6	0.025812548
84	0xbcd725c9	-0.026263135
85	0x3c11a447	0.008889264
86	0xbced2ecb	-0.028952977
87	0xbcffffc8	-0.031249896
88	0xbc392e3a	-0.011302525
89	0xbcdcb498	-0.026941583
90	0x3c414a34	0.011797477
91	0xbd0b5c86	-0.034023784
92	0x3d2fbaca	0.042902745
93	0xbd0d94b2	-0.034565635
94	0xbcac5bf6	-0.021039944
95	0xbce131e5	-0.027489612
96	0x3c64c155	0.01396211
97	0xbab2825e	-0.0013619175
98	0x3c190e32	0.009341763
99	0x3bc63163	0.006048368
100	0xbd074728	-0.033026844
101	0xbb9c1547	-0.0047632786
102	0x3d21877b	0.039435845
103	0x3c27a60f	0.010232463
104	0x3af7841a	0.0018883974
105	0x3ce965e7	0.028490974
106	0x3bb1a055	0.0054207244
107	0xbcc92562	-0.024553958
108	0xbd306015	-0.04306038
109	0xbd2c1422	-0.042011388
110	0x3d209eb9	0.03921387
111	0xbcb9cad2	-0.02267972
112	0x3cdf7549	0.027277606
113	0x3ca444a5	0.020052264
114	0xbc06ff75	-0.008239617
115	0x3bd1b25e	0.006399437
116	0xbb45d844	-0.0030188719
117	0xbb37972d	-0.0028013692
118	0xbd0ebf6d	-0.034850527
119	0xbca2fd63	-0.019896215
120	0x3b730adb	0.0037085328
121	0x3cae7969	0.021298127
122	0xbd162851	-0.036659542
123	0xbd041217	-0.032243814
124	0x3c810ac2	0.0157522
125	0xbca524c6	-0.020159137
126	0xbc6ada0d	-0.014334214
127	0xbd26bd90	-0.040708125

mlp.2.weight f4 [1, 128]
0	0xbdac35ba	-0.08408685
1	0xbd03d066	-0.032181166
2	0xbc9ed0ac	-0.019386612
3	0x3db1d127	0.08682471
4	0x3d2e35cc	0.042531773
5	0x3d8519fd	0.064990975
6	0x3d98a7ce	0.07453881
7	0x3bff150f	0.007784493
8	0x3d4e24fe	0.050328247
9	0x3da417c1	0.08012343
10	0xbd445d07	-0.04794028
11	0xbda4c766	-0.08045845
12	0x3bc0883c	0.0058756154
13	0x3ca73bb7	0.020414216
14	0x3d65fee4	0.056151286
15	0xbc8eba23	-0.017422741
16	0xbc6e74ed	-0.0145542445
17	0x3d093798	0.033500284
18	0xbc6f767d	-0.014615652
19	0xbd9fc355	-0.078009285
20	0x3cde9840	0.027172208
21	0xbdb2ac4c	-0.08724269
22	0xbb7ae666	-0.00382843
23	0xbcd27dfa	-0.025694836
24	0xbc6983a5	-0.014252578
25	0x3d5bbdab	0.05364768
26	0xbda119da	-0.07866259
27	0x3d0e0e94	0.03468187
28	0x3c00d9d3	0.007864433
29	0xbba82cba	-0.005132285
30	0x3d054af9	0.032542203
31	0x3d8a8e0a	0.06765373
32	0xbd313c0d	-0.04327016
33	0x3cd0ab66	0.025472354
34	0x3d2812d4	0.04103358
35	0x3d443050	0.047897637
36	0x3d5dfef2	0.054198213
37	0x3cb53af8	0.022122845
38	0xbd37e8a1	-0.044899587
39	0x3d20ea79	0.03928611
40	0xbd91d7a8	-0.07121211
41	0xbd2dfe59	-0.042478893
42	0x3bb600f3	0.0055543124
43	0xbcea866a	-0.028628547
44	0xbd1a6811	-0.0376969
45	0xbc3a3b4e	-0.011366678
46	0x3da29484	0.07938483
47	0xbbde3aec	-0.0067819264
48	0xbd4799b9	-0.048730586
49	0x3d121ec3	0.035673868
50	0x3cf1dd19	0.029524373
51	0xbc5468e9	-0.012964466
52	0xbda1a362	-0.07892491
53	0x3d720311	0.059084956
54	0x3da78282	0.08179189
55	0x3d934550	0.07190955
56	0x3daecd9f	0.08535313
57	0x3d573b2c	0.052546665
58	0x3da41126	0.08011083
59	0x3d317c87	0.04333165
60	0x3b36ec22	0.0027911742
61	0xbd0b9842	-0.03408075
62	0xbc7b9b5f	-0.015356868
63	0x3d135029	0.03596512
64	0xbd3959ce	-0.04525166
65	0xbd5d3b9b	-0.054011922
66	0x3cfe22a0	0.03102237
67	0xbda624d2	-0.08112492
68	0x3d3d8200	0.046266556
69	0xbd836315	-0.06415383
70	0xbb431e63	-0.002977275
71	0xbd2020ab	-0.039093655
72	0x3cb1b5bf	0.021693109
73	0x3d19af82	0.037520893
74	0xbd3cb2d4	-0.04606898
75	0xbd9db769	-0.07700998
76	0xbd4c5659	-0.049887035
77	0x3d90470c	0.07044801
78	0x3d979302	0.074010864
79	0xbcdb5c7a	-0.026777495
80	0xbcc45cba	-0.023969997
81	0xbda4ebfa	-0.080528215
82	0xbdae5355	-0.08511988
83	0x3cef403e	0.029205438
84	0xbc0de5c1	-0.008660735
85	0x3db240de	0.08703779
86	0x3cabc189	0.020966308
87	0x3c3dbf13	0.0115812
88	0x3d46fe80	0.048582554
89	0xbdaef18c	-0.08542165
90	0xbc796988	-0.0152229145
91	0xbda1086f	-0.07862937
92	0xbc95f066	-0.018303107
93	0x3dabaa70	0.08382118
94	0xbc9ff6f6	-0.01952694
95	0xbca58a3c	-0.020207517
96	0x3c3f439d	0.011673835
97	0xbcb4e43f	-0.022081492
98	0x3c82382d	0.015895927
99	0x3c96eb96	0.018422883
100	0x3bead8b1	0.007166945
101	0x3dacc4a1	0.084359415
102	0xbcac8ef8	-0.021064267
103	0xbc87f316	-0.016595405
104	0x3d5de0e7	0.05416956
105	0xbd6ca844	-0.057777658
106	0x3cda27ab	0.026630243
107	0x3c6fbc3a	0.014632279
108	0xbbad4dbc	-0.0052888077
109	0x3d03ae2d	0.03214853
110	0xbda8b44d	-0.08237515
111	0xbc00db48	-0.007864781
112	0xbcd305b4	-0.025759555
113	0xbd0e4307	-0.03473189
114	0x3d69358c	0.056935832
115	0xbd7b37fe	-0.061332695
116	0xbc941b22	-0.018079344
117	0x3dadfcad	0.0849546
118	0xbd4f7815	-0.05065163
119	0xbd613e9a	-0.054991342
120	0x3d12257c	0.03568028
121	0xbd392570	-0.04520172
122	0xbd48a777	-0.048987832
123	0x3da8c121	0.082399614
124	0x3d8f0811	0.069839604
125	0xbd97e17b	-0.07416054
126	0xbc8fe6c9	-0.017566102
127	0x3d60d5c9	0.05489138
