RecsysFiles/debug_cf.pth (torch, 265304 bytes, 3 tensors)

mlp.0.weight f4 [128, 512]
00000000: a354 a5bc e3dc debc da65 16bc 45dd aa3b
00000010: e3bc b5bc 983e 5cbc 45a2 b5bc e405 e3bc
00000020: eb3c 103c a01d acbc 74a9 073d 9ac8 c1bc
00000030: e81b 1ebd 3359 a1bb d7c4 a0bb 443f 07bd
00000040: e723 943b 751a 98bc 0b62 33bd dbe9 303c
00000050: 5986 423a cb6b efbc f84c 0fbd b391 9d3b
00000060: 5cb4 823c b5cc b53b 3fd1 f2bc b319 023c
00000070: 6fa2 fdbb 8e3f f13c 1cc1 c13c 751e 6abb
00000080: c689 b1bb 99a4 2fbd 7e14 d53c 85c0 1b3d
00000090: 8cb1 293d b412 fbbc 3a5b 2d3d bb95 0f3c
000000a0: 99d5 d53b a778 b03b 066e 303c f228 11bd
000000b0: 2839 613c b1a8 e7bb a9a5 3e3b 2125 1fbd
000000c0: f1c1 243d 7d62 233d 1e24 1a3c 764b 13bc
000000d0: e21f 46bb 9c70 283c 8571 7bbc 64d1 8bbc
000000e0: e9ba 3fbc e93a 8fbc 8c67 d23c 7e0f d6bc
000000f0: 7ac7 493b d320 103d faa0 f2bc 125c 04bc
00000100: c38e 0b3d 6236 173d e275 e83b 7906 2e3d
00000110: a161 c73c b13a c1bc 5788 a0b9 ddf4 293d
00000120: 25ef 373c 2c33 b83c 0306 283b baae 263d
00000130: 8882 a1bc 41db 0fbd 5ac5 153d 07ab 11bd
00000140: 58d3 2bbd 4764 20bc 2f75 333d 6e68 19bd
00000150: 2e7d 31bb 28c6 2c3d fac0 7cbc d4c6 c8bc
00000160: 3eca 1a3d 653e fabc 9cd4 2a3c 8cde 0dbd
00000170: f972 78bc c221 253c 1622 0e3d a648 1f3d
00000180: 7386 213d a447 b03c 7150 55ba 36eb c0bc
00000190: 0c6f 8d3b 1051 9c3c aa04 6b3c 3fc7 153d
000001a0: ff33 d03c 89da be3c cfbd f5bc 423a 89bc
000001b0: a13c 08bc af7a b5bb fd82 423c 0497 1fbd
000001c0: 6267 7abb c135 80bc 5c7d febc 4edd aabc
000001d0: 0c8e 733c c1e5 a03c b804 03bd c262 23bc
000001e0: 379a 31bc 9b91 893c 24e7 b2bc 1296 e63c
000001f0: 7145 763c f626 eb3b ebfb 15bc 1952 bcbc
00000200: e821 6abc 0cd1 093c c487 283a 7a52 c2bc
00000210: 01ae f23c 6d7d 003d b31a cb3c cb93 24bd
00000220: 137f 753c 7466 913c af88 bf3c 24f1 2c3d
00000230: 0a58 25bd a455 84bc 1436 98bc 5413 b63c
00000240: 03e6 2b3d acbb f839 819c a6ba f32e f3bc
00000250: a318 d339 49a7 053d b7bc dcbc 2d7e 63bc
00000260: f64b 803b afcd b03b e90d 253d 7b12 18bd
00000270: b58f 09bc 9073 223d 7660 8e3c 66a7 693b
00000280: ac8f 14bd 5962 b43c 3bac 1fbd eab5 083d
00000290: 4c5c 183d b9af 05bc 7480 bfbc 0a2d 8ebb
000002a0: f6b3 d43c a74b f1bb 1ce7 05bd dc42 1dbc
000002b0: fec6 babc 4f2d c83b 8285 29bd 5ad6 72bb
000002c0: 4982 7c3a 6eff 303d fcca d2bb f489 d63b
000002d0: 3598 c53b d924 26bc 8f5d 8dbc d694 253d
000002e0: 42d9 8b3c bf68 963c 2b23 223b 8bb2 533c
000002f0: 1d3d a13c 7943 afbc 2380 d5bc 7b6a 36bb
00000300: 438e fc3c 3e7a 93bb 3444 0bbd 85a3 283d
00000310: 2f7a 003d ea69 28bd 1a85 23bd cfe9 6c3c
00000320: 3e17 293c 2715 5a3c 4e60 0dbd 4514 babc
00000330: a912 10bd 5fcd 163d 93af c33c 773f 9bba
00000340: 0f26 85bc 81a1 53bc de62 23bb ad98 963c
00000350: f985 c03c 98cc c23c 9895 e8bc 393e 183d
00000360: 9bbe 183c 2e53 a53c 8249 37bc dbf9 febc
00000370: 605a 983b b8d1 a53c a443 ccbc 6e69 0bbd
00000380: 2fd2 e8bc 0186 96bb 3f9a eabb 3fac 42bc
00000390: 784e 2dbd 7205 723c b5ba d1bc 67ba febc
000003a0: ace0 b7bc fe59 d83c b860 073d c458 ebbc
000003b0: 5162 f1bc 4f5c eebc 321b 1ebd 3539 683b
000003c0: 0593 be3c fc43 d63c acd1 cb3c e9ec 513b
000003d0: beee 9dbc 2610 603c 6958 ee3c ad33 223d
000003e0: c286 a03c 1d7a c93c 6fb6 13bc 5dd6 91bc
000003f0: b463 19bd 47bc 9c3c 8343 a73b e38f 69ba
-0.02018196 -0.027204936 -0.009179557 0.0052143657 -0.022184795 -0.013442658 -0.022172103 -0.02771277
0.0088035865 -0.02101022 0.033120587 -0.023655225 -0.038600832 -0.0049239635 -0.0049062776 -0.03301932
0.0045208815 -0.018567303 -0.043794673 0.010797943 0.0007420532 -0.029226204 -0.034985512 0.0048086285
0.015955143 0.0055480846 -0.029640792 0.0079406975 -0.007740311 0.02944925 0.023651652 -0.003572372
-0.005418035 -0.042881582 0.026010748 0.038025398 0.041429088 -0.030648567 0.04232333 0.008763726
0.006525707 0.0053854766 0.010768419 -0.03543944 0.013746537 -0.00706967 0.002909044 -0.03885377
0.04022402 0.039888848 0.009408025 -0.008990159 -0.0030231406 0.010280754 -0.015346889 -0.017067619
-0.011702278 -0.017484145 0.02568414 -0.026130434 0.0030789063 0.035187554 -0.029617775 -0.008078592
0.034071695 0.036917098 0.007094131 0.04248664 0.024338545 -0.023587557 -0.0003061916 0.041493285
0.01122645 0.022485338 0.002563835 0.040693976 -0.019715562 -0.035121206 0.036565162 -0.035563495
-0.0419496 -0.009789533 0.043812927 -0.037453108 -0.002708267 0.042181164 -0.015426869 -0.024508871
0.03779053 -0.03054733 0.010426667 -0.034636065 -0.01516413 0.010078849 0.034700476 0.038887642
0.03943486 0.021518536 -0.0008137292 -0.023549657 0.0043162163 0.019081622 0.014344374 0.03656697
0.025415419 0.023297565 -0.029997734 -0.016751412 -0.008315236 -0.0055383067 0.01187205 -0.03896238
-0.0038208594 -0.015650632 -0.031065635 -0.02085748 0.01486541 0.019640805 -0.031986922 -0.009972276
-0.01083999 0.016793063 -0.021838732 0.028147731 0.015031205 0.0071762754 -0.0091543 -0.022988366
-0.01429031 0.008411657 0.0006428922 -0.023720969 0.029623987 0.031369615 0.024793005 -0.04018001
0.01498391 0.017749049 0.023380606 0.042222157 -0.040367164 -0.016154118 -0.018580474 0.022226013
0.041967403 0.00047442073 -0.0012711437 -0.029685473 0.00040263412 0.03263024 -0.026945455 -0.013885063
0.0039153052 0.005395613 0.04029647 -0.037127 -0.008396079 0.03966099 0.01737998 0.0035652756
-0.03626983 0.022019552 -0.03898261 0.03337661 0.037197396 -0.008159571 -0.02337668 -0.004338865
0.025964718 -0.007363755 -0.032691106 -0.00959846 -0.022799965 0.006108917 -0.04138709 -0.0037054033
0.0009632451 0.043212347 -0.006432889 0.006547207 0.0060301074 -0.010140621 -0.017256526 0.040425144
0.01707137 0.018360494 0.00247402 0.012920986 0.019682461 -0.021394478 -0.026062077 -0.0027834463
0.030829554 -0.0045006564 -0.03400059 0.04117157 0.031366523 -0.041116633 -0.039921857 0.014460041
0.010320483 0.013310707 -0.03451567 -0.022714743 -0.035174046 0.03681695 0.023887431 -0.0011844476
-0.0162535 -0.0129169235 -0.0024930756 0.018383348 0.023501383 0.023779199 -0.028391644 0.037168715
0.009322788 0.020181265 -0.011186959 -0.031125 0.0046494454 0.020241603 -0.024934597 -0.034036092
-0.028420536 -0.004593611 -0.007159501 -0.011881887 -0.04231116 0.014771806 -0.025601724 -0.031094743
-0.022446 0.0264101 0.033051223 -0.02872885 -0.029465826 -0.02909675 -0.038600154 0.0035434489
0.023263464 0.026155464 0.024880253 0.0032032079 -0.01927888 0.013675725 0.029094892 0.039600063
0.019595508 0.024594361 -0.0090156635 -0.017802412 -0.0374486 0.019132746 0.0051044836 -0.00089096854

mlp.0.bias f4 [128]
00000000: ec47 d33b b5cc b33c 220e e1bb c411 ff3c
00000010: 3336 293d 0f68 5e3b 6c30 27bd aba5 e8bc
00000020: ab01 013d 0cf5 373b 1026 14ba 247c d9bc
00000030: e31a 083d cce7 af3c 4377 e7ba a14a 07bd
00000040: c51a 1cbd b251 6bbc 9a6d 0e3c 6e6f fe3b
00000050: 5547 6f3c f83a 16bd 28c8 bf3c 6d7e 12bc
00000060: b12c f8bc 23a4 1ebd e32a 533c 9ec7 47ba
00000070: 381b e93c 7a57 1d3c f237 11bd 55a1 ab3c
00000080: 3770 81bc bf42 b03a 7218 023d bf74 f1bc
00000090: a486 fe3c 9e79 d13c 24eb e03c fa42 cebb
000000a0: 7db3 5c3c 183b 623c c2f3 b43b e865 433c
000000b0: b230 2d3d 7dff a13c 0002 1f3c 1958 90bc
000000c0: 3e8e 7d3b 0e96 243c 6ad3 0ebd 1fb7 82b9
000000d0: 5ca5 773c a8f5 6b3b 53c0 ff3c 7aed 243d
000000e0: cb3e 00bc 2cd5 b0bc 2ee8 aebc 1820 b33b
000000f0: f951 f9bc 50d8 143d f04a 263d 389f 073d
00000100: bcb4 bbbc e4e3 4dbc 4185 243d c9c2 9abc
00000110: 302c 693b 0b9a cb3c 78b5 e63c b182 853c
00000120: 3945 18bd e457 c3bb ff15 1fbd ea20 c7bb
00000130: 6e00 a3bc 776c eb3c 722d d2bc 1e3c b4bb
00000140: 8d60 7f3c 87cd 91bc 23e7 163d 3cb6 1ebc
00000150: 1474 2b3d e611 37bd 5464 683a 6e6d 453b
00000160: 7433 243b 11d8 dd3c 63ea 343d 7723 123d
00000170: 8c4c 17bd 381e 483c 2daa e53c adcd 42bc
00000180: c027 2dbc 2e9b 803c b29a 5ebc 8a2f 93bc
00000190: 46ed 32bd 8886 b03c 1239 cbbb 3808 c23c
000001a0: 0d3a 123d 9216 9e3c e7a2 65bc 4486 0e3d
000001b0: 2dfe c33c ba42 993c 7f9e cc3b 059f f23c
000001c0: 0448 433c 7a75 fe3c a30e ddbc a2cb 1fbd
000001d0: 8ad1 16bd 38d3 5cbc ecc5 eb3c 8f00 243d
000001e0: 6e37 87bc 731d 0cbd b191 5e3b 7d98 843b
000001f0: 4c4b 1b3d 1226 19bd fc1f 49bc a74b 553c
0.0064477827 0.021948198 -0.00686814 0.031136401 0.041311454 0.0033936535 -0.040817663 -0.02839931
0.03149573 0.0028069643 -0.00056514237 -0.026548453 0.033228766 0.021472834 -0.0017659444 -0.033030156
-0.038111467 -0.014362739 0.008693123 0.0077647483 0.014604409 -0.03667733 0.023410872 -0.008941275
-0.030294748 -0.03873075 0.012888643 -0.0007620993 0.028455362 0.009603376 -0.035453744 0.020950953
-0.015800579 0.0013447626 0.031761594 -0.029474614 0.031070061 0.025570687 0.027455874 -0.0062946053
0.013470528 0.013808034 0.0055222223 0.011926152 0.042282768 0.019775147 0.009705067 -0.017620133
0.003868952 0.010045541 -0.03486959 -0.00024931968 0.015115108 0.0036004577 0.031219637 0.040265538
-0.007827471 -0.021586023 -0.021350946 0.0054664724 -0.030434595 0.036339104 0.04059881 0.033110827
-0.02291333 -0.01256654 0.040166143 -0.018891709 0.0035579316 0.024853727 0.028162703 0.01629767
-0.03717539 -0.005961405 -0.038839336 -0.0060769217 -0.019897666 0.028738244 -0.025656436 -0.0055003306
0.015586984 -0.017798198 0.036841523 -0.009687003 0.041858748 -0.044694804 0.0008865048 0.003012504
0.0025055083 0.027080568 0.04416884 0.035678353 -0.036938235 0.012214236 0.028035248 -0.011889857
-0.010568559 0.015698995 -0.013586687 -0.017967004 -0.043683313 0.021548524 -0.0062018717 0.02368556
0.035699893 0.019297872 -0.01401589 0.034796014 0.023924911 0.018708576 0.00624448 0.029616842
0.011919025 0.031061877 -0.026984518 -0.03901256 -0.036820926 -0.013478093 0.0287809 0.040039595
-0.016505923 -0.034207772 0.003396135 0.0040464983 0.037913606 -0.037389822 -0.012275692 0.013018525

mlp.2.weight f4 [1, 128]
00000000: c96d 423d b447 633d 9654 b23d 27c1 173d
00000010: fecd 58bd 3ece c4bb f2d0 5cbc 5018 793d
00000020: 1d1b 613d 3417 223d 9777 a4bc df55 bebc
00000030: 0fbc 93bd 8e90 45bc 729b 94bd 914c 8c3c
00000040: 8ce6 843d 2ec6 913b 780f 6c3c 315f 7fbd
00000050: ab03 4cbd c609 7d3d 8cdb a63d 3594 883d
00000060: c502 d1bc 93b4 53bd 13b9 a8bd fa48 26bc
00000070: c454 ec3c b735 883d 1363 13bd 0397 a83d
00000080: 3056 09bc 8cd7 bfbc e4cb 3b3d adf9 7d3c
00000090: 92d1 65bd b576 3fbd a771 803d b217 7f3c
000000a0: 0c5c 7e3d ae2f 253c 4afb 523c c82a c23c
000000b0: 9af4 7f3d 69a4 f1bc e6eb 8e3d 8915 973d
000000c0: 0fc2 a2bd 6a56 49bd 1446 8a3d 6fba 763d
000000d0: a543 5c3d 9ab5 9abc f1a5 b33d 740d 183d
000000e0: 343a 97bc 8472 60bc 800b 4cbd 9ced f8bc
000000f0: 41ce 72bc e2ab 26bd 12b3 a0bd f50b 9abd
00000100: 05e9 7b3b 4f5a 8c3c 9f5c fdbc 28f6 a5bd
00000110: 9c96 2d3c dfb4 a5bd 3345 3fbb 51fd 013d
00000120: c8c8 f73b 6826 87bd d218 9b3c 66b6 68bc
00000130: 669a 463c 20a3 e2bc 0185 e33b 30f1 4d3d
00000140: 1e4c 993c d15b 843d 2327 d23c d8c1 773d
00000150: 8d35 4cbd 63fb 11bd 7503 22bd 7dc0 39bc
00000160: 0251 7e3c 0fcb 40bd 504f 7d3d 944f 75bd
00000170: 1246 933d 6ab7 013c 98a4 a5bd b26f 92bd
00000180: b388 c03b 0c42 873c 7b0d 11bc d7f9 593d
00000190: 5085 4a3d e2a0 47bd 21d5 c1bc 64b3 663d
000001a0: 0950 3b3d 08a3 82bd 27b0 363d fec6 4f3d
000001b0: d944 873d 4a61 8f3d ed7a a7bd a8be b0bc
000001c0: d030 a43d 9e40 27bd ffe2 bb3c f0b8 6a3d
000001d0: 8106 853c c045 aabc 0c2f a2bd 875b 813d
000001e0: 85c5 58bc 1aae b1bd 8d97 d93c 411c 4ebc
000001f0: e322 2ebd 5a9a 953d d96d 34bd 645f dc3c
0.04746798 0.055488303 0.0870754 0.03704944 -0.052930824 -0.0060060313 -0.013477551 0.0608142
0.054957498 0.03957291 -0.020076556 -0.023234306 -0.07213604 -0.01205839 -0.07256211 0.017126353
0.06489286 0.0044486737 0.014407985 -0.06234664 -0.049808186 0.0617769 0.08147344 0.06668893
-0.025514016 -0.05168588 -0.08238425 -0.010149235 0.028849013 0.0665087 -0.035983156 0.08231928
-0.008382365 -0.02341821 0.045848742 0.015501422 -0.056108065 -0.046744067 0.062716775 0.015569614
0.0620995 0.0100821685 0.012877295 0.02370204 0.06248913 -0.029497342 0.06978588 0.073771544
-0.0794717 -0.049154676 0.067516476 0.06023639 0.05377545 -0.018885422 0.08771885 0.037122205
-0.01846037 -0.013699178 -0.049815655 -0.030386738 -0.014819683 -0.040691264 -0.07846655 -0.07521812
0.003843845 0.017132906 -0.030927954 -0.08103591 0.01059499 -0.08091139 -0.0029185533 0.031735722
0.007561777 -0.06599122 0.018932734 -0.014203643 0.012121772 -0.027665675 0.0069433455 0.050278842
0.018713053 0.06462825 0.025653427 0.0604876 -0.049855758 -0.03564013 -0.039554078 -0.011337397
0.015522243 -0.04706865 0.061843216 -0.059890345 0.07191099 0.0079172645 -0.080880344 -0.071502104
0.005875671 0.016510986 -0.008853312 0.05321678 0.049443543 -0.048737414 -0.023661198 0.056323424
0.045730624 -0.06378752 0.044601586 0.050726883 0.066049285 0.07000978 -0.08177743 -0.021575287
0.08017123 -0.040833108 0.022935389 0.057305276 0.016238453 -0.020785213 -0.0791913 0.063162856
-0.013230686 -0.08675785 0.026561523 -0.012579978 -0.04251374 0.07304831 -0.04405007 0.026900955
